mp3_new/weights.npz (npz, 3114 bytes, 3 tensors)

W0 f4 [3, 5, 5, 3]
0.008495519 0.4442242 0.5829028 -0.30577323 -0.20041397 -0.39560458 -0.27974296 -0.008728041
-0.24490954 0.071424834 0.48588514 0.4433016 0.1070586 0.5397183 0.6044094 -0.18964967
0.16204228 0.12455499 0.27124178 0.5459931 0.8424012 0.0894065 0.15724914 0.2319991
-0.18106551 -0.024103023 -0.06706369 -0.49546352 -0.15034528 -0.07033056 -0.36641935 -0.06718295
-0.16142549 -0.3864714 -0.24689977 -0.32448798 -0.1647389 0.017232735 0.079328805 -0.16388354
-0.11979705 -0.09628392 -0.09955859 0.06858249 0.248601 -0.1082903 -0.11200605 -0.1019268
-0.12938155 -0.13050821 -0.08886241 -0.020558638 0.12530072 0.21208748 -0.19627285 -0.119253926
-0.3423168 -0.27628902 -0.16257247 -0.24668036 0.34563574 0.3520323 0.36465317 0.2399592
0.09055176 -0.024676014 0.19754533 0.028322557 0.19266881 0.19285345 0.03062143 -0.037903707
0.485033 0.39060175 0.716995 -0.39862996 -0.37186804 -0.39073855 -0.53252405 0.00033183652
0.1325244 -0.31160676 0.54109436 0.804121 -0.14228857 1.1837716 1.3683153 -0.259407
0.18829466 0.22822063 -0.38805655 -0.31082094 -0.2621086 -0.51131636 0.012240058 0.24548616
-0.59271455 -0.034231476 0.25642848 -0.5061229 0.33815047 0.8731519 -0.008574637 0.62332624
0.70863914 -0.25055042 -0.17626283 -0.06420088 -0.3551009 -0.13464347 0.014371327 -0.4514096
-0.047870457 0.17395744 -0.6062448 -0.20509948 0.1654879 -0.6827618 -0.034575086 0.18466014
-0.29110038 0.040057752 0.39298058 -0.26155326 -0.051564638 0.2330064 -0.5624328 -0.15095045
0.022608764 -0.5454394 -0.51704806 -0.17282028 -0.6020869 -0.41484672 -0.011590196 -0.3379787
0.35419583 0.5940514 -0.21236753 -0.008834229 0.15577787 -0.46473098 -0.28841537 -0.018935632
-0.42718244 -0.27540126 0.026769223 -0.6317202 -0.11721814 0.17678417 0.03375463 0.22328593
0.26606664 0.10267363 0.014017161 0.04913652 0.12993401 -0.18825856 -0.26846704 -0.15486412
-0.14277779 -0.074713446 0.18936233 0.032896653 -0.086826146 -0.18598592 -0.3859473 -0.34902942
0.012406142 -0.26040956 -0.15826315 0.00838282 -0.4276345 -0.9455422 0.18565063 0.96155936
1.8946971 0.026301242 -0.3336279 -0.72457534 0.2829602 0.22344086 0.34112766 0.0666142
0.18560968 0.39144707 0.311587 -0.16771151 -0.5256288 -0.037248068 -0.13031302 -0.16135617
0.2988187 -0.38632008 -0.43871588 -0.064289115 -0.52419174 -0.9187847 0.2669479 0.29615936
0.80693555 0.027292993 -0.20707664 -0.5066522 0.14049935 -0.15727735 -0.15596259 0.12111741
-0.3456436 -0.35479757 0.46607676 -0.18899252 -0.51129806 -0.01564289 -0.14083715 0.021903425
0.3208406 -0.04625803 0.02191647 -0.0018360948 -0.35287988 -0.38075104 0.22277458 0.18578114
0.3686203
00000000: ca30 0b3c 5b71 e33e 1e39 153f 4f8e 9cbe
00000010: 5239 4dbe af8c cabe 783a 8fbe 0f00 0fbc
00000020: 91c9 7abe 2f47 923d f0c5 f83e 6df8 e23e
00000030: 8a41 db3d fa2a 0a3f 93ba 1a3f 8633 42be
00000040: 69ee 253e b016 ff3d 34e0 8a3e 34c6 0b3f
00000050: 9ba7 573f c11a b73d eb05 213e 2c91 6d3e
00000060: 3d69 39be b473 c5bc b058 89bd 65ad fdbe
00000070: 1df4 19be 7809 90bd 519b bbbe 3797 89bd
00000080: b94c 25be 94df c5be 4bd3 7cbe 4a23 a6be
00000090: 50b1 28be aa2b 8d3c 2477 a23d 16d1 27be
000000a0: 2858 f5bd 8130 c5bd 60e5 cbbd fa74 8c3d
000000b0: 4391 7e3e 4ec7 ddbd 6e63 e5bd 00bf d0bd
000000c0: 997c 04be f2a3 05be 7ffd b5bd 976a a8bc
000000d0: d54e 003e 762d 593e c0fb 48be 673b f4bd
000000e0: 2644 afbe c175 8dbe 6679 26be c799 7cbe
000000f0: 2bf7 b03e 943d b43e d2b3 ba3e ddb7 753e
00000100: 3373 b93d 5a25 cabc 5349 4a3e b504 e83c
00000110: f94a 453e 607b 453e cbd9 fa3c eb40 1bbd
00000120: 3f56 f83e f4fc c73e fc8c 373f 3a19 ccbe
00000130: 7d65 bebe e20e c8be 7f53 08bf 58fa ad39
00000140: 7ab4 073e ec8a 9fbe 2985 0a3f e0da 4d3f
00000150: 18b4 11be d485 973f f524 af3f ffd0 84be
00000160: 51d0 403e abb2 693e 59af c6be ec23 9fbe
00000170: 1933 86be a1e5 02bf 868a 483c b960 7b3e
00000180: 24bc 17bf 4e36 0cbd 984a 833e 4591 01bf
00000190: 0f22 ad3e e286 5f3f a27c 0cbc 4f92 1f3f
000001a0: 6069 353f 2548 80be 3e7e 34be c07b 83bd
000001b0: c9cf b5be fadf 09be b775 6b3c 291f e7be
000001c0: d013 44bd e621 323e dc32 1bbf 9905 52be
000001d0: a975 293e 7ac9 2ebf 9b9e 0dbd 8c17 3d3e
000001e0: 1c0b 95be 9913 243d c034 c93e 4fea 85be
000001f0: 7135 53bd 3b99 6e3e 99fb 0fbf c192 1abe
00000200: 0436 b93c eba1 0bbf 435d 04bf cdf7 30be
00000210: 5e22 1abf ca66 d4be cee4 3dbc 8b0b adbe
00000220: 2859 b53e c113 183f e076 59be 71bd 10bc
00000230: 3c84 1f3e 38f1 edbe 2eab 93be e61e 9bbc
00000240: a8b7 dabe 6501 8dbe 214b db3c 6ab8 21bf
00000250: 1010 f0bd e906 353e 4b42 0a3d 11a5 643e
00000260: e339 883e 8d46 d23d 3ca8 653c 6043 493d
00000270: 6c0d 053e dac6 40be 8374 89be b394 1ebe
00000280: 5734 12be 5d03 99bd 33e8 413e a4be 063d
00000290: e8d1 b1bd 1873 3ebe e29a c5be fcb3 b2be
000002a0: 2243 4b3c 6754 85be bc0f 22be 1858 093c
000002b0: e9f2 dabe 0e0f 72bf 331b 3e3e c128 763f
000002c0: 6f85 f23f b475 d73c 47d1 aabe c57d 39bf
000002d0: 29e0 903e aecd 643e 49a8 ae3e 076d 883d
000002e0: 7710 3e3e c06b c83e 5588 9f3e 91bc 2bbe
000002f0: 9c8f 06bf 6e91 18bd c770 05be 8d3a 25be
00000300: c4fe 983e bfcb c5be 5e9f e0be 03aa 83bd
00000310: 6e31 06bf 7935 6bbf 65ad 883e 33a2 973e
00000320: 5493 4e3f 8e95 df3c e60b 54be f5b3 01bf
00000330: 10df 0f3e 500d 21be a8b4 1fbe 680c f83d
00000340: 33f8 b0be 07a8 b5be 9da1 ee3e 4187 41be
00000350: 6ee4 02bf 8525 80bc 9d37 10be d06e b33c
00000360: 3845 a43e 0f79 3dbd 2b8a b33c 1ea9 f0ba
00000370: acac b4be cdf1 c2be 051f 643e 693d 3e3e
00000380: cdbb bc3e

W1 f4 [192, 2]
-0.17866148 0.5828956 0.5713949 -0.6404202 -0.33925247 0.38954896 -0.1126334 0.47909206
0.2061522 -0.11090801 -0.124056846 0.17668043 -0.20116787 0.40134043 0.060707983 0.3289769
0.090858944 -0.16441265 -0.0945628 0.14534473 0.3778432 -0.0935649 0.30278575 -0.09315435
-0.27466127 0.7216342 -0.075356126 -0.029093906 -0.08402931 0.21336074 -0.023259256 0.14542271
0.25698704 -0.08724076 -0.032758757 0.115427405 -0.30587217 0.35289738 -0.08835104 -0.04456449
-0.30403212 -0.070080265 -0.3879655 0.7234899 0.09011731 -0.3938647 -0.3122539 0.3609977
-0.14957172 0.41716614 0.20508298 0.083826765 -0.37123996 0.29821754 -0.12961926 0.21102083
0.0061155856 0.18120492 -0.25147444 0.18002877 -0.08294945 0.088615626 -0.19262977 0.0719844
0.1266673 -0.32493475 -0.09325428 -0.23983297 0.3083403 -0.051248506 0.28523052 -0.23755442
0.21778022 0.030494401 -0.09282496 0.029066218 0.36871684 -0.016946403 -0.17924045 0.34733626
-0.111303955 0.19981128 -0.019534077 0.26777503 -0.28467768 0.3586776 0.007957979 -0.025657132
-0.32396427 0.17396675 -0.377423 0.48499334 0.15578501 -0.056624044 -0.26612258 0.47366843
-0.050045334 -0.052444126 0.18611878 -0.1273373 -0.22692795 -0.19730107 0.19274032 -0.11411857
0.15816617 0.0740051 -0.29933894 -0.093897805 0.05955695 -0.25470534 0.18782933 -0.21839577
0.26379675 -0.26441956 0.0805827 -0.17443983 0.15515266 -0.26413167 0.7772602 -0.7435315
0.24983068 -0.13060229 0.06657914 0.14797074 0.44165176 -0.3036299 0.06484501 -0.30165425
-0.20702286 0.3254074 0.2707479 -0.14134131 0.24623485 -0.21601921 -0.006384121 -0.04536627
-0.080372415 -0.13906392 -0.26102698 0.18343113 0.010271663 0.023236286 -0.26666418 0.27226368
-0.37207386 0.44217402 -0.1428792 0.1534408 -0.572685 0.3470185 -0.06783547 -0.24520282
0.0013859312 -0.21870983 -0.14333281 -0.047285665 0.11531355 -0.51473427 0.27181062 -0.28790164
0.33815962 -0.5045049 0.010044314 -0.50701845 0.20471506 -0.45551828 0.7966237 -0.7062765
0.48259586 -0.56711304 0.035616282 -0.29291344 0.55413777 -0.694499 0.2297381 -0.46716356
0.04431389 -0.16194299 0.22642784 -0.53761744 0.45276028 -0.7412833 -0.012197445 0.051394995
0.074978665 -0.31363037 -0.53132826 0.090692006 -0.0006255805 0.08705241 -0.43496335 0.477166
-0.2597182 -0.3023769 0.25914428 -0.13615681 -0.39642313 0.20978731 0.20129323 -0.28447738
0.32347462 -0.22252885 -0.10059171 0.22968212 0.02120206 -0.20131443 0.4302257 -0.14656943
0.07067013 0.15462375 0.29189825 -0.2439713 -0.087894976 -0.13037066 0.6672942 -0.35483116
0.13998584 -0.10716256 -0.19298024 0.093090706 0.5326269 -0.38175085 0.31436142 -0.19070588
-0.0018052857 -0.036309015 0.27070713 -0.16929315 0.122336574 -0.23248243 -0.08090488 0.22200216
0.07804065 0.2570517 -0.13669193 -0.013385812 0.227435 -0.23629415 -0.09194853 0.07155121
-0.10287612 -0.044946376 0.0033419442 -0.16262038 -0.41741553 0.31210747 0.26815328 -0.22316194
0.17174025 -0.25075796 -0.24069734 -0.058233384 0.26730362 -0.077646755 0.18461788 0.16811566
00000000: 09f3 36be a538 153f f046 123f 94f2 23bf
00000010: 80b2 adbe f672 c73e 57ac e6bd 8e4b f53e
00000020: 9019 533e bd23 e3bd 8411 febd b7eb 343e
00000030: f3fe 4dbe 7e7c cd3e efa8 783d a96f a83e
00000040: 4114 ba3d ca5b 28be 24aa c1bd 40d5 143e
00000050: aa74 c13e f49e bfbd bc06 9b3e b5c7 bebd
00000060: 67a0 8cbe 05bd 383f 5054 9abd 5856 eebc
00000070: 8f17 acbd 3d7b 5a3e 328a bebc b1e9 143e
00000080: ce93 833e 49ab b2bd 0c2e 06bd 3465 ec3d
00000090: 479b 9cbe f7ae b43e 64f1 b4bd 4189 36bd
000000a0: 19aa 9bbe 3e86 8fbd 6aa3 c6be a236 393f
000000b0: 6d8f b83d a2a8 c9be bedf 9fbe b1d4 b83e
000000c0: 5429 19be cd96 d53e 4601 523e 5ead ab3d
000000d0: 2a13 bebe f8af 983e e9ba 04be d815 583e
000000e0: 4065 c83b c88d 393e 42c1 80be 7659 383e
000000f0: 67e1 a9bd 1c7c b53d bd40 45be 8f6c 933d
00000100: 13b5 013e d95d a6be 1afc bebd c696 75be
00000110: c8de 9d3e f4e9 51bd bc09 923e 7741 73be
00000120: c701 5f3e 65cf f93c 031b bebd 471c ee3c
00000130: 74c8 bc3e 2fd3 8abc cf8a 37be 0fd6 b13e
00000140: 54f3 e3bd 549b 4c3e ee05 a0bc cf19 893e
00000150: 46c1 91be 97a4 b73e 2f62 023c e82e d2bc
00000160: a5de a5be 5724 323e 963d c1be 0c51 f83e
00000170: 1b86 1f3e 9dee 67bd 3841 88be ab84 f23e
00000180: 56fc 4cbd a7cf 56bd ec95 3e3e b664 02be
00000190: cd5f 68be 4b09 4abe b85d 453e ffb6 e9bd
000001a0: 50f6 213e fc8f 973d f442 99be 7e4d c0bd
000001b0: fdf1 733d bd68 82be 5556 403e 24a3 5fbe
000001c0: 5e10 873e 0062 87be 8b08 a53d 5ba0 32be
000001d0: 57e0 1e3e 443c 87be 86fa 463f 1558 3ebf
000001e0: 9dd3 7f3e 9bbc 05be a55a 883d a485 173e
000001f0: 2e20 e23e 6175 9bbe 76cd 843d 6d72 9abe
00000200: cdfd 53be cc9b a63e 789f 8a3e c7bb 10be
00000210: fd24 7c3e 2434 5dbe e331 d1bb fbd1 39bd
00000220: 4b9a a4bd c666 0ebe 54a5 85be 5fd5 3b3e
00000230: 7a4a 283c 065a be3c 3588 88be 2566 8b3e
00000240: 7780 bebe a264 e23e ed4e 12be 961f 1d3e
00000250: 7c9b 12bf 69ac b13e 53ed 8abd 7316 7bbe
00000260: 22a8 b53a 78f5 5fbe d6c5 12be 9dae 41bd
00000270: 8329 ec3d a0c5 03bf c32a 8b3e d867 93be
00000280: 4223 ad3e 3c27 01bf e890 243c f6cb 01bf
00000290: d3a0 513e b139 e9be 88ef 4b3f 89ce 34bf
000002a0: ce16 f73e 522e 11bf 61e2 113d c0f8 95be
000002b0: f9db 0d3f b0ca 31bf 7740 6b3e 1030 efbe
000002c0: 7b82 353d 62d4 25be b3dc 673e 4ca1 09bf
000002d0: 32d0 e73e bec4 3dbf cbd7 47bc 8f83 523d
000002e0: 6a8e 993d 2994 a0be 2105 08bf bbbc b93d
000002f0: fffd 23ba 8948 b23d 84b3 debe 1a4f f43e
00000300: c9f9 84be 25d1 9abe 8fae 843e b16c 0bbe
00000310: f9f7 cabe 7cd2 563e d01f 4e3e 05a7 91be
00000320: 779e a53e 9ade 63be 0703 cebd ca31 6b3e
00000330: f1af ad3c 5f25 4ebe 8b46 dc3e 4c16 16be
00000340: 80bb 903d b055 1e3e b073 953e 9dd3 79be
00000350: 4802 b4bd e37f 05be cbd3 2a3f 6eac b5be
00000360: 7358 0f3e 0b78 dbbd 9d9c 45be 57a6 be3d
00000370: 3d5a 083f d974 c3be fbf3 a03e 6748 43be
00000380: 569f ecba c3b8 14bd 209a 8a3e 2f5b 2dbe
00000390: 998b fa3d e00f 6ebe 75b1 a5bd 8954 633e
000003a0: c7d3 9f3d 489c 833e f8f8 0bbe 2a50 5bbc
000003b0: b8e4 683e 18f7 71be 834f bcbd 7189 923d
000003c0: b7b0 d2bd b119 38bd 8504 5b3b f585 26be
000003d0: 7db7 d5be 8dcc 9f3e 634b 893e 9084 64be
000003e0: addc 2f3e 5963 80be 5d79 76be 2186 6ebd
000003f0: 05dc 883e 4305 9fbd 780c 3d3e 8326 2c3e

W2 f4 [2, 1]
0.46512505 -0.65578556
00000000: df24 ee3e 90e1 27bf
